…
.add(Dropout(0.2))\n","cnn_model.add(Activation(\"relu\"))\n","\n","# We project onto a single unit output layer, and squash it with a cnn_tokenizer = tsigmoid:\n","cnn_model.add(Dense(1))\n","cnn_model.add(Activation(\"sigmoid\"))\n","\n","print(cnn_model.summary())"],"execution_count":19,"outputs":[{"output_type":"stream","text":["Model: \"sequential\"\n","_________________________________________________________________\n","Layer (type)                 Output Shape              Param #   \n","=================================================================\n","embedding (Embedding)        (None, 512, 50)           250000    \n","_________________________________________________________________\n","dropout (Dropout)            (None, 512, 50)           0         \n","_________________________________________________________________\n","conv1d (Conv1D)              (None, 503, 250)          125250    \n","_________________________________________________________________\n","global_max_pooling1d (Global (None, 250)               0         \n","_________________________________________________________________\n","dense (Dense)                (None, 250)               62750     \n","_________________________________________________________________\n","dropout_1 (Dropout)          (None, 250)               0         \n","_________________________________________________________________\n","activation (Activation)      (None, 250)               0         \n","_________________________________________________________________\n","dense_1 (Dense)              (None, 1)                 251       \n","_________________________________________________________________\n","activation_1 (Activation)    (None, 1)                 0         \n","=================================================================\n","Total params: 438,251\n","Trainable params: 438,251\n","Non-trainable params: 0\n","_________________________________________________________________\n","None\n"],"name":"stdout"}]},{"cell_type":"markdown","metadata":{"id":"EXPOAZsmHqKj"},"source":["\n","\n","**Exercice 6**\n","\n","On peut désormais compiler le mo
…
